hand_images_classifier.pth (torch, 91146 bytes, 10 tensors)

0.weight f4 [64, 42]
0	0xbdd59b42	-0.10430004
1	0x3d7766a4	0.06040062
2	0x3d2229c0	0.039590597
3	0xbd71765e	-0.058950774
4	0x3dc2a98a	0.09504993
5	0xbe1c27fa	-0.15249625
6	0xbdc98eca	-0.09841688
7	0x3d001b04	0.031275764
8	0x3e0dc233	0.13843612
9	0xbdc01636	-0.093792364
10	0x3daa6926	0.08320837
11	0xbded2b53	-0.11580529
12	0xbc3a65e0	-0.011376828
13	0xbd8dfa05	-0.06932453
14	0xbcedafe0	-0.029014528
15	0x3dae39dc	0.085071295
16	0x3e17f003	0.14837651
17	0xbd436dd6	-0.04771217
18	0x3b53dd00	0.0032327771
19	0xbdcf845c	-0.101326674
20	0x3d89853c	0.067148656
21	0xbcb8c238	-0.022553548
22	0xbbc1a660	-0.005909726
23	0x3b18f4c0	0.0023339242
24	0xbdfb2370	-0.122626185
25	0xbdf136d8	-0.11778039
26	0xbdff7609	-0.12473685
27	0xbd7897ea	-0.06069175
28	0xbe18b747	-0.14913665
29	0x3d2444c8	0.040104657
30	0xbd236220	-0.0398885
31	0x3db1fc88	0.08690745
32	0x3d56a3d0	0.052402318
33	0xbdbb1d2c	-0.091364235
34	0xbdb4ae21	-0.08822275
35	0x3e142677	0.14467798
36	0xbd2d45c2	-0.042302854
37	0xbd8edf51	-0.06976188
38	0xbcdfeeb8	-0.02733551
39	0xb96f0000	-0.00022792816
40	0xbe0008dd	-0.12503381
41	0xbdd5992a	-0.10429604
42	0xbdae24f9	-0.08503146
43	0x3e339620	0.17537737
44	0xbe05cf4d	-0.1306736
45	0x3d512f2a	0.05107037
46	0xbe04fa07	-0.12986003
47	0xbd95a9ff	-0.07307815
48	0x3dc5527d	0.09634874
49	0xbd5cc751	-0.05390102
50	0x3e53fd96	0.20702204
51	0xbdcca51e	-0.09992431
52	0xbd6a2d37	-0.057172026
53	0x3c962710	0.018329173
54	0x3e1134e3	0.14180331
55	0xbd8ba82d	-0.06819186
56	0x3e8ecfcd	0.27892914
57	0xbd86d699	-0.065839
58	0x3e323b38	0.17405403
59	0x3dc319db	0.09526416
60	0x3d995958	0.07487744
61	0xbbe54845	-0.0069971406
62	0x3e608ce2	0.21928743
63	0xbdd4cbd9	-0.10390443
64	0x3cc89af0	0.024487942
65	0x3d9d0220	0.07666421
66	0xbbd7f2c1	-0.006590218
67	0x3c95a046	0.0182649
68	0x3d25cafc	0.040476784
69	0x3dc1d1cd	0.094638444
70	0x3d4b9d84	0.049710765
71	0xbdff890d	-0.12477312
72	0x3de7bccb	0.11315306
73	0x3df135d6	0.117778465
74	0x3d41d280	0.04731989
75	0x3ebf4144	0.3735448
76	0xbdf9886b	-0.12184223
77	0x3dbd0159	0.09228773
78	0x3e317d66	0.17332992
79	0xbe72ae4f	-0.23699306
80	0x3dcce1b3	0.10003986
81	0xbe86f373	-0.26357612
82	0xbda90a74	-0.08253947
83	0xbca6be39	-0.020354377
84	0xbea060c1	-0.31323817
85	0x3e26e82b	0.16299503
86	0xbe94b765	-0.2904617
87	0x3ca038fe	0.019558426
88	0xbe5a0003	-0.21289067
89	0x3dbabe3d	0.09118316
90	0xbe196242	-0.14978889
91	0x3d4ec195	0.050477583
92	0xbe88662d	-0.26640454
93	0xbdb8e0fb	-0.090272866
94	0x3cbb0b9a	0.02283268
95	0xbde79a6d	-0.11308751
96	0x3e2c737f	0.16840933
97	0x3de521aa	0.111880615
98	0x3ea32125	0.31861225
99	0xbda43fe5	-0.080199994
100	0x3eca4a73	0.39509925
101	0xbdea3946	-0.11436705
102	0x3e122a2e	0.14273903
103	0xbda79a06	-0.081836745
104	0x3dbb9b31	0.0916046
105	0xbe1d2480	-0.15345955
106	0xbd61c230	-0.055116832
107	0xbdc2892d	-0.094988205
108	0x3d29a3fb	0.04141615
109	0xbe29d962	-0.16586831
110	0xbde85350	-0.113440156
111	0xbd56db41	-0.05245519
112	0x3d858be2	0.06520821
113	0x3c8fd30e	0.017556693
114	0x3e119408	0.14216626
115	0x3d2e8054	0.042602852
116	0x3d25c252	0.04046852
117	0x3e051b09	0.12998594
118	0xbe0ffb3c	-0.14060682
119	0xbddac3fa	-0.10681911
120	0x3e4e60c0	0.20154095
121	0xbe0a2685	-0.13491257
122	0x3d897bf1	0.06713093
123	0x3dd00c9f	0.10158657
124	0xbcfbd63f	-0.030741809
125	0x3eab3745	0.33440605
126	0x3e19a1ce	0.1500313
127	0x3d8dac5a	0.06917639
128	0x3e34db5b	0.17661802
129	0x3e03b5bd	0.12862296
130	0x3e1478b6	0.14499173
131	0x3e4840d2	0.19555977
132	0x3e33d898	0.17563093
133	0xbde09670	-0.10966194
134	0x3d44dcbd	0.048062075
135	0xbe17c031	-0.14819409
136	0xbdff91a3	-0.1247895
137	0x3e2e89b9	0.17044725
138	0x3c81d640	0.015849233
139	0x3de6163a	0.11234708
140	0x3e605d3b	0.21910565
141	0xbe3787c0	-0.17922878
142	0x3e2feeb6	0.17180905
143	0x3cb8c596	0.022555154
144	0x3e0ae124	0.13562447
145	0x3cc1aeef	0.023642985
146	0x3ca75ad4	0.020429052
147	0x3e148980	0.14505577
148	0x3c83d747	0.016093863
149	0x3d609685	0.054831047
150	0xbe003ac9	-0.12522425
151	0x3debec41	0.11519671
152	0xbe02b49b	-0.12764208
153	0xbe154cc7	-0.1458007
154	0xbd86b656	-0.065777466
155	0xbd46bd3b	-0.048520308
156	0xbccb5710	-0.024821788
157	0x3e52ea05	0.20597084
158	0xbe26fe49	-0.1630794
159	0x3e770298	0.24122083
160	0x3dda25cf	0.10651743
161	0x3d982ff7	0.074310236
162	0xbde15a69	-0.110035725
163	0xbdde8163	-0.10864522
164	0xbd7504e9	-0.059819136
165	0xbe903278	-0.28163505
166	0x3db8061e	0.08985542
167	0xbe96d088	-0.29455972
168	0xbda0bc02	-0.0784836
169	0xbce209ed	-0.027592624
170	0x3d36b02f	0.044601616
171	0x3d888487	0.066659026
172	0x3d6aa8bb	0.05728982
173	0xbd5a1f99	-0.05325279
174	0xbd4ddaf4	-0.050257638
175	0x3caa9970	0.020825118
176	0x3d42c8f3	0.04755492
177	0xbe15d6f9	-0.14632787
178	0x3c07bf9c	0.008285429
179	0xbe2a6037	-0.16638266
180	0x3e4a8717	0.19778095
181	0x3d64f997	0.05590209
182	0x3e07eb5a	0.13273373
183	0x3ded56f5	0.11588851
184	0x3e2db25a	0.16962567
185	0x3e5b5bbd	0.21421714
186	0x3dce4b6f	0.100729816
187	0xbd65cea5	-0.056105275
188	0xbdae27a2	-0.08503653
189	0x3d8525b9	0.06501336
190	0xbe3038ea	-0.17209211
191	0xbd793730	-0.060843647
192	0xbe393383	-0.18086056
193	0x3e4e8b71	0.2017038
194	0xbd2882be	-0.04114031
195	0x3e210630	0.15725017
196	0xbdd14ef0	-0.10220134
197	0xbc3df50c	-0.011594068
198	0x3d3c113a	0.045914866
199	0x3d33753e	0.043812983
200	0xbde09384	-0.109656364
201	0x3e670d6d	0.22563715
202	0xbdd6c8c4	-0.10487512
203	0x3dac99af	0.0842775
204	0xbd04caf6	-0.03242012
205	0xbdb12e34	-0.08651391
206	0xbe60e49c	-0.21962208
207	0xbe202059	-0.1563734
208	0x3daa58d5	0.083177246
209	0xbe83893d	-0.25690642
210	0x3c9805c8	0.018557444
211	0xbbe0b580	-0.006857574
212	0xbe157aef	-0.14597677
213	0xbcb05370	-0.021524161
214	0xbd6ca39e	-0.057773225
215	0xbb2945c0	-0.0025828928
216	0x3dcf009a	0.101075366
217	0xbe168375	-0.14698584
218	0xbe0481e6	-0.12940177
219	0x3da7e1e4	0.08197382
220	0xbc49e540	-0.012322724
221	0xbe085a66	-0.13315734
222	0xbe155c92	-0.14586094
223	0xbda65598	-0.081217945
224	0xbd37be20	-0.04485905
225	0xbe02bcd5	-0.12767346
226	0x3dc8ffc6	0.0981441
227	0xbd33fdf4	-0.04394336
228	0x3d1290d4	0.03578265
229	0x3d615ba4	0.055019036
230	0x3e134cc9	0.1438476
231	0xbd1f89f6	-0.03894993
232	0xbdc6c4f0	-0.097055316
233	0x3db40990	0.087908864
234	0xbc061dd0	-0.008185819
235	0xbe0cbe90	-0.13744569
236	0x3d8b381a	0.0679781
237	0xbc87f788	-0.016597524
238	0xbe00227e	-0.12513158
239	0xbd4d073c	-0.050055727
240	0x3e17eaab	0.14835612
241	0x3db9925c	0.09061119
242	0x3e16d0fd	0.1472816
243	0x3d2e4b58	0.042552322
244	0xbe02c0f4	-0.12768918
245	0x3d6dcd14	0.058056906
246	0x3d2bf64c	0.041982934
247	0x3e173513	0.1476634
248	0xbc2712e0	-0.010197371
249	0xbd54eef6	-0.051985703
250	0x3cbaf498	0.02282171
251	0xbe1a9070	-0.15094161
252	0x3dcf5ed5	0.1012551
253	0xbe4234b6	-0.1896542
254	0x3e7d1871	0.24716355
255	0xbd2a88e3	-0.04163445

0.bias f4 [64]
0	0x39c82c00	0.00038179755
1	0xbd6eb139	-0.05827448
2	0x3d951dc9	0.07281072
3	0xbd7fb666	-0.062429808
4	0x3dbff2be	0.09372471
5	0xbc182af0	-0.009287581
6	0x3e24eb12	0.16105297
7	0x3d6aa482	0.057285793
8	0xbd46ff54	-0.048583344
9	0x3de616a5	0.11234788
10	0xbdc683dc	-0.09693119
11	0x3d4afed6	0.049559437
12	0x3cc23a56	0.023709457
13	0xbbfe371a	-0.0077580335
14	0x3e116c1f	0.14201401
15	0x3e61b1ef	0.22040533
16	0xbda20595	-0.07911221
17	0xbdd8654c	-0.10566196
18	0xbd8494e5	-0.06473712
19	0x3dfe7f54	0.1242663
20	0x3e19545e	0.1497359
21	0x3ed5322f	0.4163985
22	0x3e45d61c	0.19319957
23	0x3c89a888	0.016803995
24	0x3e016b35	0.12638552
25	0x3e4ea869	0.20181431
26	0xbc8060b8	-0.01567112
27	0x3df09e53	0.11748948
28	0x3de98b56	0.11403529
29	0xbd25ffd6	-0.040527187
30	0xbc59c1a0	-0.013290793
31	0x3de063c7	0.10956531
32	0x3ac98d10	0.0015377123
33	0xbe129fbc	-0.14318746
34	0x3b8be803	0.0042696013
35	0xbe156551	-0.1458943
36	0x3aeca132	0.0018053411
37	0x3e1889b2	0.14896277
38	0x3c504c3c	0.012713488
39	0xbd2af46c	-0.041737005
40	0x3d798906	0.06092169
41	0x3e327d31	0.17430569
42	0x3e2e2cc5	0.17009266
43	0x3e5cf854	0.21579105
44	0xbe571488	-0.21003926
45	0x3bf04610	0.007332571
46	0xbd80c11a	-0.06286831
47	0x3e2d3575	0.16914923
48	0xbd9acf09	-0.0755902
49	0x3dbb232a	0.091375664
50	0xbdd27314	-0.10275856
51	0xbd6bee71	-0.057600442
52	0x3e141b5a	0.14463559
53	0x3e0f32da	0.13984242
54	0xbddd8b26	-0.10817556
55	0x3e406bd5	0.18791135
56	0x3d13e731	0.036109153
57	0xbc893ad7	-0.01675169
58	0xbd9d4374	-0.07678881
59	0x3d8d0e8c	0.0688754
60	0x3bbbdd00	0.0057331324
61	0x3d83662b	0.06415971
62	0x3e67f29a	0.22651139
63	0xbd7e3f07	-0.062071826

2.weight f4 [128, 64]
0	0xbdbebfd6	-0.093139336
1	0xbe1dbdef	-0.15404485
2	0x3ddc9f5e	0.107725844
3	0xbe43284f	-0.19058345
4	0xbc48a752	-0.0122469235
5	0x3d36f698	0.044668764
6	0xbd96648a	-0.07343395
7	0x3ddbf688	0.107403815
8	0xbe398b34	-0.18119508
9	0xbdbb6b13	-0.09151282
10	0xbdc953ac	-0.09830412
11	0x3d8f9506	0.07010846
12	0x3bd378cc	0.006453609
13	0x3e018fe3	0.12652545
14	0x3d13d554	0.036092117
15	0xbb722d1c	-0.0036953157
16	0xbd7ff998	-0.06249389
17	0xbdeb8172	-0.11499299
18	0xbf643f56	-0.8915914
19	0xbd66cea6	-0.05634942
20	0x3e0334b5	0.12813075
21	0x3f2bf6e7	0.6717362
22	0x3fa16c15	1.2611109
23	0x3c132490	0.008980885
24	0x3e0cf2e6	0.13764533
25	0x3c6530a2	0.013988646
26	0xbc5c20c0	-0.013435543
27	0xbd47102d	-0.04859941
28	0xbd15e5ed	-0.036596227
29	0xbc81f332	-0.015863035
30	0x3d01a3ec	0.03165047
31	0xbd925c24	-0.07146481
32	0xbdc2e22e	-0.095157966
33	0xbd847916	-0.06468408
34	0xbe2ec8b3	-0.17068748
35	0xbdadc43e	-0.08484696
36	0x3e158bc3	0.14604096
37	0x3d9cd94d	0.07658634
38	0x3fca7aa5	1.5818678
39	0xbdabc1a8	-0.083865464
40	0x3df96aab	0.121785484
41	0x3d5ca27f	0.053865906
42	0x3ad94c88	0.0016578594
43	0x3e50d54b	0.20393865
44	0xbd64be9f	-0.055845853
45	0x3ce94ba3	0.02847845
46	0x3dafb5f8	0.0857963
47	0x3d101772	0.03517861
48	0xbf6338d7	-0.88758606
49	0x3dc2bea5	0.09509019
50	0x3c3e1e6e	0.011603935
51	0xbcda0785	-0.026614914
52	0x3c9d4b44	0.019200929
53	0x3d2d35d1	0.04228765
54	0xbd0d1704	-0.034445778
55	0x3da6270d	0.08112917
56	0x3ba14ea5	0.0049227052
57	0x3d6015b0	0.054708183
58	0x3ae6d880	0.001761213
59	0x3dc5cbcc	0.09658012
60	0x3d021f14	0.03176792
61	0xbde9fc3e	-0.114250645
62	0xbd481183	-0.048844825
63	0x3d4e3d34	0.050351337
64	0xbd262f80	-0.040572643
65	0x3dccc5fc	0.099987
66	0x3c0a8e32	0.008456754
67	0x3d89ec8c	0.06734571
68	0xbaf9405b	-0.0019016372
69	0x3c4eda60	0.012625307
70	0x3d416c03	0.04722215
71	0x3d33fe75	0.04394384
72	0x3d62d613	0.05537994
73	0xbd7da089	-0.061920676
74	0x3df6e6d4	0.12055746
75	0x3c704dd2	0.014666991
76	0xbd2f5ce2	-0.04281319
77	0xbdb24002	-0.08703615
78	0xbcec88e8	-0.028873876
79	0xbd84904a	-0.064728335
80	0x3cc40830	0.023929685
81	0xbd6cdc64	-0.05782737
82	0x3d5fe67e	0.054663174
83	0x3d23efab	0.040023487
84	0x3d03cc76	0.03217741
85	0xbdc10464	-0.094246656
86	0x3a1947b6	0.00058471726
87	0xbda4e6f6	-0.08051865
88	0xbda07f52	-0.078367844
89	0xbe0d6a85	-0.13810165
90	0xbd339420	-0.043842435
91	0x3dd1e906	0.10249524
92	0x3c5e9bbb	0.013586934
93	0x3d3d6838	0.04624197
94	0x3dfcedd2	0.12350048
95	0xbdda5aa4	-0.106618196
96	0xbe05c6d6	-0.13064131
97	0x3d8fa262	0.07013394
98	0x3d409ab2	0.04702253
99	0xbd19e993	-0.03757627
100	0xbdc7770a	-0.09739502
101	0xbcb49fa2	-0.022048775
102	0xbd65627c	-0.056002125
103	0xbd2486d4	-0.040167645
104	0xbddb4c8d	-0.1070796
105	0xbbebbf34	-0.007194424
106	0x3cccc603	0.024996763
107	0xbe07115c	-0.13190216
108	0x392bcd42	0.00016384295
109	0x3dac134b	0.08402117
110	0x3d1ba5e8	0.038000017
111	0xbd3ae95e	-0.045632713
112	0x3d8daae7	0.06917363
113	0xbd22f93d	-0.039788473
114	0xbd1e9d4c	-0.03872423
115	0x3c97ef7c	0.018546812
116	0xbd86d3a3	-0.06583335
117	0xbdbaf05e	-0.09127878
118	0x3b22208f	0.0024738645
119	0xbd2bdbd8	-0.041957706
120	0xbd60e7c6	-0.054908536
121	0x3caac65c	0.020846538
122	0xbd2efe48	-0.04272297
123	0xbd8535d1	-0.06504405
124	0x3d84e116	0.06488244
125	0xbdf4a3ba	-0.11945291
126	0x3d4d6889	0.05014852
127	0xbdba78aa	-0.09105046
128	0x3ab10e80	0.001350835
129	0x3c0b4929	0.008501329
130	0x3df4318d	0.119235136
131	0x3e7126fc	0.23550028
132	0xbde32c63	-0.110924505
133	0xbddb43e6	-0.1070631
134	0x3c93ad54	0.018026985
135	0x3d315671	0.043295328
136	0xbe41559e	-0.18880317
137	0x3e8918c1	0.26776698
138	0xbd6cbe28	-0.057798535
139	0x3cb6227b	0.022233238
140	0xbd7d25d5	-0.061803658
141	0x3df55a20	0.119800806
142	0xbded9d58	-0.116022766
143	0x3e106578	0.14101207
144	0x3d9d1dc8	0.07671696
145	0x3dd55038	0.10415691
146	0x3fb09fed	1.3798805
147	0xbdbb4d42	-0.09145595
148	0x3e07ed21	0.13274051
149	0x3ecccb92	0.39999062
150	0x3f17a44d	0.5923508
151	0xbcd681c0	-0.026184916
152	0x3d10ac1c	0.035320386
153	0xbe14fa16	-0.14548525
154	0xbdb54d98	-0.088526905
155	0xbd98aaeb	-0.07454475
156	0x3d06a0ba	0.032868125
157	0x3dcb0c24	0.09914425
158	0xbd0adc84	-0.033901706
159	0x3e33fa79	0.17576016
160	0xbd26015d	-0.040528644
161	0x3ba6fdc6	0.00509617
162	0xbd470651	-0.04859001
163	0xbdc0b758	-0.0940997
164	0x3d3d9064	0.04628028
165	0x3af3ac59	0.0018590792
166	0x3f3bbeb0	0.7333784
167	0x3d9bbed0	0.07604754
168	0x3ca28dcb	0.019843003
169	0x3c3f146e	0.011662586
170	0x3e4020b1	0.18762471
171	0xbcc58b40	-0.024114251
172	0x3b18b784	0.0023302743
173	0xbdeab3d5	-0.114600815
174	0xbdd372ab	-0.103246056
175	0x3e07b3b4	0.13252145
176	0x3f36ad8d	0.7135857
177	0x3e1f0658	0.15529764
178	0xbcf822aa	-0.030289967
179	0x3d4277e7	0.04747763
180	0xbb5622c0	-0.0032674521
181	0x3e026e3a	0.1273736
182	0xbd1d5dec	-0.03841965
183	0xbd694f42	-0.05696035
184	0x3de781bb	0.11304041
185	0xbd2ddbbb	-0.04244588
186	0x3d48c0fc	0.04901217
187	0x3dcb40ee	0.09924494
188	0x3d8ca7b6	0.06867926
189	0x3a4f2c73	0.0007903047
190	0x3e005b39	0.12534799
191	0xbcab79e8	-0.020932153
192	0xbdd8c472	-0.10584344
193	0xbd64484e	-0.055733018
194	0xbd3fa001	-0.04678345
195	0x3e1e49ee	0.1545789
196	0x3e23c130	0.15991664
197	0xbd9ab2da	-0.075536445
198	0x3e274960	0.16336584
199	0x3afa848a	0.0019112986
200	0xbe1cb694	-0.15304023
201	0x3cd4baff	0.025968073
202	0xbd91ab04	-0.07112697
203	0xbd60759d	-0.054799665
204	0xbd54156f	-0.051778253
205	0x3d92060b	0.07130059
206	0xbde99512	-0.11405386
207	0xbd92a9ff	-0.071613304
208	0x3daef37a	0.08542533
209	0xbd74b270	-0.059740484
210	0x3f994233	1.1973327
211	0xbcb2cc4c	-0.021825932
212	0x3dd9c38c	0.10633001
213	0x3ec886dd	0.39165393
214	0x3e5e16a1	0.2168832
215	0x3d9a4ee8	0.075345814
216	0x3dcbbf0d	0.099485494
217	0x3e475cc9	0.19468988
218	0x3c8817b0	0.016612858
219	0x3dfb95ac	0.12284407
220	0x3e176b3f	0.14787005
221	0x3c359f88	0.0110853985
222	0xbdd16ad6	-0.102254555
223	0x3cd217d4	0.025646128
224	0x3dec8c7f	0.11550235
225	0x3da727b6	0.08161871
226	0xbd7e3dfb	-0.062070828
227	0xbdb08ad7	-0.086202316
228	0xbe7692e5	-0.24079473
229	0x3dad1348	0.08450943
230	0xbf3618b1	-0.71131426
231	0xbd848db4	-0.0647234
232	0x3d84f094	0.06491199
233	0x3cac9b10	0.021070033
234	0xbd889dc9	-0.0667072
235	0xbcddfcec	-0.027098142
236	0xbe7db2d7	-0.24775253
237	0xbda32399	-0.07965774
238	0xbd46013b	-0.048341017
239	0x3e1b522f	0.1516807
240	0x3f7d4118	0.9892745
241	0xbdaad2ef	-0.08341014
242	0x3cf0c3d1	0.029390248
243	0xbde42e1b	-0.111416064
244	0x3bf05ff8	0.007335659
245	0x3e1e2b13	0.15446119
246	0x3e0b4b0f	0.13602851
247	0x3da9e669	0.082959004
248	0xbce1047a	-0.027467955
249	0xbd8ab647	-0.06773048
250	0x3de341a6	0.11096506
251	0x3b6a4055	0.0035743911
252	0xbd855370	-0.06510055
253	0x3debe9e2	0.11519219
254	0x3ddb04d9	0.10694284
255	0x3cf394c9	0.029734032

2.bias f4 [128]
0	0xbd126704	-0.035742775
1	0x3dad71f5	0.08469001
2	0x3e5cbc72	0.21556261
3	0x3dd63409	0.10459144
4	0xbd171558	-0.03688559
5	0x3df94f57	0.12173336
6	0xbc4e53ec	-0.012593251
7	0xbdb7d541	-0.08976222
8	0x3dc459f0	0.09587467
9	0x3d63c5e2	0.055608638
10	0xbc2b950a	-0.010472545
11	0x3c4f9518	0.012669824
12	0x3dc61475	0.096718706
13	0x3e525c9b	0.20543139
14	0x3d53ccb5	0.051708896
15	0xbcfd2cb8	-0.030905113
16	0xbd5780b1	-0.052612964
17	0xba35b585	-0.00069316506
18	0x3e52ffd1	0.20605399
19	0x3df2d9c7	0.11857944
20	0xbd97c314	-0.07410255
21	0x3e636ce7	0.22209512
22	0x3e010fcf	0.12603687
23	0xbcb8ddf0	-0.022566766
24	0xbdaf3110	-0.0855428
25	0x3e350799	0.1767868
26	0x3d84f6db	0.064923964
27	0xbdc5073e	-0.09620522
28	0xbd3ba2d3	-0.04580958
29	0xbcd2ee20	-0.025748312
30	0x3e062d8e	0.13103315
31	0x3e01cf16	0.12676653
32	0x3d0d93c6	0.034564756
33	0x3e5527bf	0.20815943
34	0xbd7de9a0	-0.06199038
35	0xbdcd5d5c	-0.100275725
36	0xbdc9be84	-0.09850791
37	0xbdaaaddc	-0.08333942
38	0x3e0f0e26	0.13970241
39	0xbdf0863d	-0.11744354
40	0xbdb91f06	-0.090391204
41	0x3d5eb430	0.05437106
42	0x3d85572c	0.06510767
43	0x3c50c230	0.01274161
44	0xbd0a24d4	-0.03372653
45	0x3e2ce557	0.16884361
46	0xbc04ae05	-0.00809813
47	0xbda5a9ec	-0.08089051
48	0xbd8d8bd7	-0.06911438
49	0x3c126c92	0.008937018
50	0x3d8fd19b	0.07022401
51	0xbc785fa0	-0.0151595175
52	0x3e21bbbd	0.15794273
53	0x3c5ffe29	0.013671436
54	0xbb85531b	-0.004068745
55	0xbe09e7fe	-0.13467404
56	0x3dbb7eb6	0.091550276
57	0x3d84c092	0.06482042
58	0x3df18860	0.117935896
59	0x3e50dd13	0.20396833
60	0xbdd0449c	-0.10169336
61	0x3bf14ece	0.0073641306
62	0x3ce1cbb0	0.027562946
63	0x3c55b428	0.013043441
64	0x3dd0718f	0.101779096
65	0xbd1dbbd8	-0.03850922
66	0x3d449a79	0.04799888
67	0xbdd85c91	-0.10564531
68	0xbc4863e4	-0.012230847
69	0x3c15a571	0.009133683
70	0x3ddcd310	0.107824445
71	0x38ead1c2	0.0001119706
72	0x3d343bb7	0.04400226
73	0xbdcfe542	-0.10151149
74	0x3d98551b	0.074381076
75	0x3e50d5da	0.20394078
76	0xbba759b9	-0.0051071313
77	0x3e415904	0.18881613
78	0x3cf2b73c	0.029628389
79	0xbda3f404	-0.08005527
80	0xbb9b9e05	-0.004749062
81	0x3d2f4a5f	0.042795535
82	0xbdb66734	-0.08906403
83	0xbe01986d	-0.12655802
84	0xbe061dd0	-0.1309731
85	0x3d8cf2f4	0.06882277
86	0xbdb78e8a	-0.08962734
87	0xbc634c72	-0.013873206
88	0x3e0f4ea3	0.13994841
89	0x3dabbe83	0.083859466
90	0x3e066893	0.1312583
91	0xbc829490	-0.01593998
92	0x3c87fdaf	0.016600458
93	0x3e0e6485	0.13905533
94	0xbdf7bf7e	-0.12097071
95	0xbd36bff6	-0.044616662
96	0x3e40fdfc	0.18846887
97	0x3d81e3eb	0.063423
98	0x3dbe4e73	0.09292307
99	0x3dddedff	0.1083641
100	0x3c9a25d0	0.018816859
101	0x3e26f47d	0.16304202
102	0x3dce0407	0.10059362
103	0x3e171498	0.1475395
104	0x3dffe177	0.12494176
105	0x3d009b4b	0.0313981
106	0x3b412891	0.0029473642
107	0xbde3fc4e	-0.11132108
108	0xbd732e37	-0.059370246
109	0xbdb137ee	-0.08653246
110	0x3d7942a6	0.060854577
111	0x3dae8c4f	0.085228555
112	0x3d763a74	0.06011434
113	0xbdea1bea	-0.114311054
114	0x3c6c3b1e	0.0144183915
115	0x3a480b92	0.00076311186
116	0x3e5f033c	0.21778578
117	0xbdb7ff91	-0.08984292
118	0xbcc8d4ed	-0.024515593
119	0xbdb3ad7c	-0.08773324
120	0x3e54e1d6	0.20789275
121	0x3e4fb083	0.20282178
122	0x3e3f6769	0.18691792
123	0xbdb62068	-0.088929
124	0x3dc7c613	0.097545765
125	0xbd3b4615	-0.045721132
126	0x3e4c4a16	0.19950137
127	0x3dfb0bb2	0.1225809

4.weight f4 [64, 128]
0	0x3ec7e2dc	0.39040267
1	0x3c7855f4	0.015157212
2	0x3e31996a	0.17343679
3	0x3cefd5a6	0.02927668
4	0xbd62f36b	-0.055407923
5	0x3e1cec78	0.1532458
6	0x3edf86e5	0.43657604
7	0x3d1789da	0.0369967
8	0xbc8d54df	-0.017252384
9	0xbbb527c3	-0.0055284216
10	0x3e504a2d	0.20340796
11	0xbc83d364	-0.01609201
12	0x3e3de5e4	0.18544728
13	0xbc28c8c6	-0.010301774
14	0xbe0dd62f	-0.13851236
15	0xbd0f5e42	-0.035002
16	0x3e38319b	0.17987673
17	0x3f196911	0.59925944
18	0xbd3778e8	-0.04479304
19	0x3e5c8d13	0.2153819
20	0xbe3484ba	-0.17628756
21	0xbd801ec5	-0.06255869
22	0x3f85a85b	1.0442003
23	0x3e2d188a	0.16903892
24	0x3da34ec1	0.079740055
25	0x3dc7facc	0.097646326
26	0x3d54a7a2	0.05191768
27	0xbdb0ef23	-0.08639362
28	0xbd0826c3	-0.03324009
29	0x3dac832b	0.08423456
30	0x3dba7e5b	0.09106132
31	0x3d0692bb	0.032854777
32	0x3d63d3b2	0.05562181
33	0xbd920ecd	-0.07131729
34	0x3e8f8e4b	0.28038248
35	0xbc287b88	-0.010283358
36	0x3dcc76e1	0.09983612
37	0x3db419ac	0.08793959
38	0xbd9ecdd4	-0.07754102
39	0x3d134365	0.035952944
40	0x3e0c018c	0.13672465
41	0x3d112a02	0.035440452
42	0xbd7cf0c8	-0.061753064
43	0x3d9aea38	0.07564205
44	0x3dea0e69	0.1142853
45	0x3dfb77ac	0.12278685
46	0x3ca4ca56	0.020116013
47	0x3ce4c1f0	0.027924508
48	0xbd4c6d92	-0.049909182
49	0x3d9755ea	0.07389434
50	0x3ca75207	0.020424856
51	0x3aa01180	0.0012212247
52	0x3f095a12	0.5365306
53	0x3dd9f878	0.10643095
54	0xbd3ad6e9	-0.04561511
55	0x3eb133e5	0.34609905
56	0x3e1d7ce3	0.15379672
57	0x3bc03072	0.00586515
58	0x3d064d70	0.032788694
59	0xbddfd660	-0.10929561
60	0x3d0849a0	0.03327334
61	0x3e2b5d98	0.16734922
62	0xbda8b2a4	-0.08237198
63	0xbf6ea175	-0.93215114
64	0xbc4c7bf6	-0.012480726
65	0xbd2ad3cb	-0.041705888
66	0xbc5034c3	-0.012707892
67	0x3d9374fe	0.07200049
68	0xbe1c96d8	-0.15291917
69	0x3e493085	0.19647415
70	0x3ebb0078	0.36523795
71	0x3dfaad26	0.12240057
72	0xbdfa0da5	-0.12209634
73	0x3cc114f8	0.023569569
74	0xbdcdb0c9	-0.10043485
75	0x3b0dc32e	0.0021631229
76	0xbee01166	-0.43763274
77	0x3df196fb	0.11796375
78	0x3d8793e4	0.06620005
79	0x3c6b8af5	0.014376392
80	0x3e3d8a35	0.18509753
81	0x3d8e3dc0	0.06945372
82	0x3da46a1f	0.080280535
83	0x3d7d14a5	0.061787266
84	0x3d6b4b66	0.057444952
85	0xbc9d12e5	-0.019174049
86	0x3dcf34dc	0.10117504
87	0xbd847996	-0.06468503
88	0x3e015174	0.12628728
89	0x3d3ac54e	0.04559832
90	0xbea7e1fd	-0.32789603
91	0x3eaa3680	0.33244705
92	0x3e0366f6	0.12832245
93	0x3ec89b26	0.3918087
94	0x3ce762f0	0.02824542
95	0xbd55db20	-0.052210927
96	0x3dd09953	0.10185494
97	0x3d8601bc	0.065432996
98	0xbda89258	-0.08231038
99	0x3e32fbfb	0.17478935
100	0xbd687cd3	-0.056759667
101	0x3d8486a5	0.06470994
102	0x3f2679c1	0.6502953
103	0x3e9edcbb	0.3102778
104	0x3e0c060d	0.13674183
105	0xbe331141	-0.1748705
106	0xbd905502	-0.07047464
107	0x3da4fdbd	0.08056209
108	0xbec5db9b	-0.38644108
109	0xbcb6fbd4	-0.022336878
110	0x3dd2ecce	0.10299073
111	0x3d14eb3a	0.036357142
112	0x3e8244f1	0.25443223
113	0xbd337a8d	-0.043818045
114	0xbd92d0eb	-0.07168754
115	0x3e770746	0.24123868
116	0x3dcb6c63	0.099327825
117	0x3d23bb43	0.03997351
118	0x3c842e60	0.016135395
119	0xbd087676	-0.0333161
120	0x3dfe1a85	0.12407402
121	0x3d299454	0.041401222
122	0xbd9166c8	-0.07099682
123	0x3d951e19	0.07281131
124	0x3e4d1c02	0.20030215
125	0xbdf09793	-0.117476605
126	0xbe66522b	-0.22492282
127	0xbfc16584	-1.5109105
128	0xbd628998	-0.055307
129	0x3d8d966f	0.069134586
130	0xbc89d008	-0.01682283
131	0xbba93390	-0.0051636174
132	0xbda68cb6	-0.08132307
133	0xbd1ff37b	-0.03905056
134	0xbd018c4a	-0.03162793
135	0x3d9bed79	0.07613654
136	0xbce6f35c	-0.028192215
137	0x3d252556	0.04031881
138	0xbd8ca24e	-0.06866895
139	0xbd671772	-0.056418844
140	0x3b2cb840	0.0026354939
141	0xbd8bec91	-0.06832231
142	0x3c303540	0.010754883
143	0x3dad4ea9	0.08462269
144	0x3da0cabd	0.07851169
145	0x3beaef40	0.007169634
146	0x3c20d940	0.009817421
147	0x3d708e0e	0.058729224
148	0xbd53494e	-0.05158358
149	0xbd450ebe	-0.048109762
150	0xbcbfb208	-0.023400322
151	0xbd7f467c	-0.06232308
152	0x3d9085a1	0.07056738
153	0xbd94addb	-0.07259723
154	0xbcfcab4c	-0.0308434
155	0x3d8d648d	0.06903944
156	0x3d25d9fe	0.040491097
157	0xbd15f7ca	-0.036613263
158	0xbd69bc9a	-0.05706463
159	0x3d7ecf8e	0.06220966
160	0x3da36995	0.079791225
161	0xbd6c1944	-0.057641283
162	0xbc1d1358	-0.009587131
163	0x3d8edb2b	0.06975397
164	0x3d815d93	0.06316676
165	0xbd5f168a	-0.054464854
166	0x3d65d3d2	0.05611021
167	0xbd0c291e	-0.0342189
168	0xbb2be860	-0.0026231036
169	0xbd8f681a	-0.07002278
170	0xbccd3330	-0.025048822
171	0xbc9dbc80	-0.019254923
172	0x3da03639	0.07822842
173	0xbc3ea7f8	-0.011636727
174	0xbcd9f122	-0.026604239
175	0xbc2e1100	-0.01062417
176	0x3d5444f2	0.051823564
177	0xbade18c0	-0.0016944632
178	0xbd895da0	-0.06707311
179	0x3dade5b5	0.08491079
180	0xbd769982	-0.06020499
181	0xbd87e11a	-0.066347316
182	0x3d5c7912	0.0538264
183	0xbc357cc0	-0.011077106
184	0x3d72d6aa	0.05928675
185	0x3da51f89	0.080626555
186	0x3d76cc2a	0.0602533
187	0xbd0c825e	-0.034304015
188	0x3d90339f	0.07041096
189	0x3d8d8797	0.06910627
190	0x3d788c42	0.060680635
191	0xbd12b1d2	-0.035814114
192	0x3da045d7	0.07825821
193	0x3dab073f	0.083509915
194	0x3cef8814	0.029239692
195	0xbc82af08	-0.015952602
196	0x3d8e70f5	0.069551386
197	0x3d65c8b2	0.0560996
198	0xbcfd1920	-0.03089577
199	0xbd512abe	-0.051066153
200	0x3d26a906	0.040688537
201	0xbd2166a8	-0.03940454
202	0x3d03dd7c	0.032193646
203	0x3d49417e	0.049134724
204	0x3d95a727	0.073072724
205	0xbd973635	-0.07383386
206	0x3d9ca5f5	0.07648841
207	0xbc123a00	-0.008924961
208	0xbd1e9286	-0.038713954
209	0xbd680a70	-0.05665058
210	0x3a69ac80	0.0008913949
211	0xbccaac10	-0.024740249
212	0xbc2643a0	-0.010147959
213	0x3da9f51f	0.08298706
214	0x3d89edab	0.06734785
215	0x3d8310b3	0.063996695
216	0x3d66c5e6	0.056341074
217	0x3cbc9a98	0.023022935
218	0x3d3b258a	0.045690097
219	0x3cf59840	0.029979825
220	0xbd1b431a	-0.03790579
221	0x3c5979c0	0.013273656
222	0x3d2fe792	0.042945452
223	0x3d7cbd0a	0.06170372
224	0xbd8c28ba	-0.068437055
225	0x3b455760	0.0030111894
226	0xbc82a4c8	-0.015947714
227	0x3ba54420	0.0050435215
228	0x3d948b67	0.072531514
229	0x3d2f75c6	0.042836927
230	0x3d3f8f82	0.04676772
231	0x3d570a96	0.05250033
232	0x3cd8f094	0.026481904
233	0xbd8f7337	-0.07004397
234	0x3d92e4c1	0.071725376
235	0x3d30a8ce	0.043129735
236	0x3c393670	0.011304483
237	0x3d1ca2b6	0.03824111
238	0xbcda84be	-0.026674625
239	0xbcf157ec	-0.02946087
240	0xbd5cfa41	-0.0539496
241	0x3d4ca4e2	0.049961932
242	0xbd28b144	-0.04118468
243	0xbd7566d6	-0.059912525
244	0x3d7f196e	0.06228011
245	0xbdb1a302	-0.086736694
246	0xbd326b02	-0.04355908
247	0x3c830310	0.015992671
248	0xbdb2549d	-0.08707545
249	0x3a687200	0.0008867085
250	0x3d8ca881	0.06868077
251	0xbd114c5b	-0.03547321
252	0xbc6cc720	-0.014451772
253	0xbd1bcfba	-0.0380399
254	0xbcb3aedc	-0.021933965
255	0x3d5b25a6	0.0535027

4.bias f4 [64]
0	0x3d70d383	0.058795463
1	0xbd892aa2	-0.06697585
2	0xbd50746c	-0.05089228
3	0x3d964fa6	0.073394105
4	0xbd7de3bb	-0.06198476
5	0x3e09eae4	0.1346851
6	0xbd0dc7d3	-0.034614395
7	0x3d473c8e	0.048641734
8	0xbc871154	-0.016487755
9	0xbd940e9b	-0.07229348
10	0xbd80a1f4	-0.0628089
11	0x3e142f1b	0.14471094
12	0x3d9e6be1	0.0773542
13	0xbcb355ad	-0.02189144
14	0xbd732694	-0.059362963
15	0x3d5f5d4c	0.054532334
16	0x3cdd19c9	0.026989834
17	0xbbc035d0	-0.00586579
18	0x3df13083	0.11776831
19	0xbd62f31e	-0.055407636
20	0xbd031439	-0.032001708
21	0x3d1159ef	0.035486158
22	0x3e1360af	0.1439235
23	0x3e707ee5	0.23485906
24	0x3d82c57b	0.06385323
25	0x3d9da63d	0.07697723
26	0xbcf334cc	-0.029688261
27	0xbd637b3a	-0.05553744
28	0xbe1200b8	-0.14258087
29	0x3cad5b99	0.021161841
30	0x3df32a85	0.11873344
31	0xbaad8dd6	-0.0013241123
32	0x3d0afff2	0.033935495
33	0xbcbb59b8	-0.02286993
34	0xbcb452cd	-0.022012139
35	0xbc2ea4b0	-0.010659382
36	0x3d5f6551	0.054539982
37	0x3d40a02e	0.04702776
38	0x3d13bf8e	0.036071353
39	0xbd4e9c50	-0.05044204
40	0xbcff6788	-0.031177297
41	0x3ccf1be0	0.025281847
42	0x3d8e3928	0.069444954
43	0x3d484b0b	0.04889969
44	0x3c9a4eee	0.018836465
45	0x3e131ff3	0.14367656
46	0x3db3d7e3	0.087814115
47	0x3e816033	0.25268707
48	0xbe1676e3	-0.14693789
49	0x3d46a805	0.04850008
50	0x3d3a1ea5	0.04543938
51	0xbd72ead4	-0.05930598
52	0xbdaa4f8c	-0.083159536
53	0x3d453940	0.0481503
54	0xbc80f749	-0.015742915
55	0xbdc22973	-0.09480562
56	0x3d906668	0.070507824
57	0xbc424448	-0.0118571
58	0x3e412b00	0.1886406
59	0x3d91c0f3	0.0711688
60	0x3ce35269	0.027749257
61	0xbd3208d6	-0.043465458
62	0xbd667be8	-0.05627051
63	0x3d55b792	0.05217702

6.weight f4 [32, 64]
0	0x3d675d78	0.056485623
1	0xbdf0bde6	-0.1175497
2	0xbc296d75	-0.010341038
3	0x3de82e30	0.113369346
4	0xbda9d08c	-0.0829173
5	0x3dc1631e	0.09442733
6	0xbdfcc8cd	-0.12342987
7	0x3dcd12ae	0.100133285
8	0x3d9acd8c	0.07558736
9	0xbda128cf	-0.07869112
10	0x3dab7112	0.08371176
11	0xbd9c619f	-0.07635807
12	0xbb751b42	-0.003740028
13	0x3e023a25	0.12717493
14	0xbd5ce0a1	-0.05392516
15	0xbd9910d8	-0.07473916
16	0xbda465ee	-0.08027254
17	0xbd575f94	-0.052581385
18	0xbd0296aa	-0.031881966
19	0x3dc91ec8	0.09820324
20	0xbd696405	-0.05698015
21	0x3d2d2123	0.04226793
22	0xbdb99dcc	-0.090633005
23	0x3db3f106	0.08786206
24	0x3bac56d6	0.005259375
25	0xbdab994d	-0.08378849
26	0x3dd3399d	0.10313723
27	0x3ce4ff18	0.02795367
28	0xbe2459af	-0.16049837
29	0xbd867dcf	-0.06566965
30	0x3d54fac2	0.051996954
31	0xbcd0553f	-0.025431274
32	0xbdc303ab	-0.09522184
33	0xbcffb000	-0.031211853
34	0x3d8f39ff	0.06993484
35	0xbd81e4fe	-0.06342505
36	0xbd82392b	-0.0635856
37	0x3d618ce5	0.055066008
38	0x3de8d124	0.113680154
39	0x3da173cb	0.07883414
40	0xbde4d6b6	-0.11173765
41	0x3e06d751	0.13168074
42	0xbc21ac52	-0.0098677445
43	0x3e0f7116	0.14007983
44	0x3d1bc3d5	0.038028557
45	0xbe0658d4	-0.13119823
46	0x3d08e8db	0.033425193
47	0x3c95963b	0.018260112
48	0x3dae1cf2	0.08501615
49	0xbcd5a0c1	-0.02607763
50	0xbdd1f0fe	-0.10251044
51	0xbd7e563b	-0.062093955
52	0xbd02595e	-0.03182351
53	0xbc82126d	-0.015877927
54	0xbdf67306	-0.12033658
55	0xbdc06256	-0.09393756
56	0xbdb7adb2	-0.089686766
57	0x3dcd6e3e	0.10030793
58	0x3da1b8cc	0.07896575
59	0xbb3f62c9	-0.0029203168
60	0xbbb43f59	-0.0055007157
61	0x3d34b6db	0.044119697
62	0x3d9f3f92	0.07775797
63	0x3ddc9100	0.10769844
64	0xbb24e140	-0.0025158674
65	0x3db38b34	0.08766785
66	0x3d78e86c	0.06076853
67	0x3c484470	0.012223348
68	0x3bbaac80	0.005696833
69	0x3c002920	0.007822305
70	0xbd8a2864	-0.06745985
71	0x3d91b000	0.071136475
72	0xbdbc4836	-0.09193461
73	0x3d87ef4a	0.06637438
74	0xbdd40df2	-0.10354222
75	0xbd9b525e	-0.0758407
76	0xbd072044	-0.032989755
77	0x3de3314a	0.110933855
78	0xbdff9b32	-0.12480773
79	0xbdb88620	-0.09009957
80	0x3dca9858	0.098923385
81	0xbd300d8c	-0.04298167
82	0xbc8251f8	-0.015908226
83	0x3d7dd47c	0.06197022
84	0x3d767c64	0.060177222
85	0xbdf97602	-0.12180711
86	0x3dc6883a	0.09693952
87	0xbd2b3c60	-0.041805625
88	0xbdc2507c	-0.094880074
89	0xbc983108	-0.018578067
90	0x3d94566e	0.07243048
91	0x3dd6b43a	0.10483594
92	0xbdda9dc2	-0.10674621
93	0xbdb062a4	-0.08612564
94	0xbcdcd7b8	-0.026958331
95	0x3d110808	0.03540805
96	0x3c5763e0	0.013146371
97	0x3dba182a	0.0908664
98	0x3cb58498	0.022157952
99	0xbb650580	-0.0034945905
100	0x3c9f27d8	0.019428179
101	0x3db17660	0.08665156
102	0xbca0ee28	-0.019644812
103	0xbdb28314	-0.087164074
104	0x3dbf8076	0.09350674
105	0x3da877be	0.08225964
106	0x3c1f90c0	0.009739101
107	0x3d86dab8	0.06584686
108	0xbdc81066	-0.09768753
109	0x3de4eb3e	0.111776814
110	0xbdafbada	-0.08580561
111	0xbc3afab0	-0.011412308
112	0xbda5eea0	-0.08102155
113	0x3d01ed18	0.03172025
114	0xbd7fc3c4	-0.062442556
115	0xbdd9f0e6	-0.10641651
116	0x3d6864c0	0.056736708
117	0xbb833fe0	-0.004005417
118	0x3c42d550	0.011891678
119	0xbccf7ea0	-0.025328934
120	0xbd90c758	-0.07069272
121	0x3c6629e0	0.01404807
122	0xbdd6e7f6	-0.10493462
123	0x3da5140c	0.08060464
124	0x3cc1f850	0.023677975
125	0xbd87ce3c	-0.06631133
126	0x3ded09f4	0.11574164
127	0xbda813ae	-0.082068786
128	0xbdabb259	-0.083836265
129	0xbd99df7e	-0.07513331
130	0xbd2c2c11	-0.042034212
131	0xbdec4365	-0.11536292
132	0xbdde2084	-0.108460456
133	0x3d44fbb5	0.04809161
134	0xbd89d939	-0.06730885
135	0xbc4023b0	-0.011727259
136	0x3db039a0	0.08604741
137	0x3d9a8bfa	0.0754623
138	0x3cf69a98	0.030103013
139	0x3d5874d9	0.05284581
140	0xbb85b7b3	-0.0040807365
141	0x3de73bd4	0.11290708
142	0xbdc5e039	-0.09661908
143	0xbdc10acd	-0.09425888
144	0xbcccd008	-0.02500154
145	0x3d2efbc2	0.042720564
146	0xbde8d979	-0.113696046
147	0xbdfeb3e6	-0.12436657
148	0xbd4eea27	-0.050516274
149	0xbd151d0e	-0.03640466
150	0x3dd41ac6	0.10356669
151	0xbda0c209	-0.07849509
152	0xbdd5096c	-0.10402188
153	0xbdcddef1	-0.10052288
154	0x3d9b8f8b	0.07595738
155	0xbdb9d63a	-0.090740636
156	0xbd303a0d	-0.04302411
157	0xbd8f41ce	-0.06994973
158	0xbcb8c66b	-0.02255555
159	0x3d9dff7c	0.077147454
160	0x3ce1fdfe	0.027586933
161	0xbd487470	-0.04893917
162	0x3dabcf57	0.08389156
163	0x3dc7c80e	0.09754954
164	0x3c84115e	0.016121563
165	0xbd325c1b	-0.04354487
166	0xbdd2d8fe	-0.10295294
167	0x3d9987ac	0.074965805
168	0x3c7bd7d1	0.015371279
169	0xbdfa5619	-0.12223453
170	0x3c2074cf	0.009793474
171	0x3d481ba4	0.048854485
172	0x3dc558a0	0.096360445
173	0x3d98550b	0.07438096
174	0xbdb2408f	-0.0870372
175	0x3a92e727	0.0011207805
176	0xbddc0b49	-0.1074434
177	0x3de04e24	0.10952404
178	0xbdf2963f	-0.118450634
179	0xbd0ecf24	-0.034865513
180	0xbdbaae5d	-0.091152884
181	0x3c1823ec	0.009285908
182	0xbda4e9ba	-0.08052392
183	0x3d43010c	0.04760842
184	0xbc043e40	-0.008071482
185	0x3de7f056	0.11325137
186	0xbb4e4071	-0.0031471516
187	0x3d8745ed	0.06605134
188	0x3d365f7e	0.044524662
189	0x3db3f409	0.087867804
190	0x3dc3f896	0.095688984
191	0x3d2a8a3e	0.041635744
192	0x3e8c91af	0.27454898
193	0x3db3ea22	0.08784892
194	0x3c81f02d	0.015861595
195	0x3ece20b6	0.4025933
196	0x3d3c7a14	0.04601486
197	0x3ecb5d14	0.3971945
198	0xbd64bc53	-0.055843662
199	0xbd90bf0e	-0.07067691
200	0xbc0a2650	-0.008431986
201	0x3d865ac4	0.06560281
202	0xbd685b18	-0.0567275
203	0x3e7898a5	0.2427698
204	0xbe605bcd	-0.21910019
205	0xbd4326f0	-0.047644556
206	0xbdf73944	-0.120714694
207	0xbf4101f4	-0.75393605
208	0x3f5ffeec	0.87498355
209	0xbdc7b550	-0.097513795
210	0xbea612c8	-0.32436204
211	0xbd56370b	-0.052298587
212	0x3d5b2944	0.05350615
213	0x3d2fa49c	0.042881593
214	0xbfc60af4	-1.5472093
215	0x3e39a39a	0.18128815
216	0xbfc6e5c3	-1.5538868
217	0xbef9a320	-0.48757267
218	0xbdc98b5c	-0.09841034
219	0xbdbb31de	-0.09140371
220	0x3f44dc17	0.7689833
221	0xbf6c6d90	-0.9235468
222	0x3e9b5abd	0.30342665
223	0x3c95a0c0	0.018265128
224	0xbe15572b	-0.14584033
225	0xb9f7a200	-0.0004723221
226	0x3c44f8d0	0.012022212
227	0x3daf933c	0.085730046
228	0xbd4b34dc	-0.049610958
229	0xbda8f55e	-0.08249925
230	0xbe8d1e63	-0.27562246
231	0xbdfe1e92	-0.124081746
232	0xbcc9f5df	-0.024653373
233	0xbdd48fe2	-0.10379006
234	0x3df93992	0.12169184
235	0xbdf8f8ee	-0.121568546
236	0xbdffa298	-0.12482184
237	0x3d859708	0.065229475
238	0x3ec5a3d6	0.3860156
239	0x3d03ef32	0.032210536
240	0x3dea6da8	0.114466965
241	0x3d2cd6e9	0.04219714
242	0xbf0bd73f	-0.54625314
243	0xbcda02db	-0.02661269
244	0x3e0f8838	0.14016807
245	0xbd082e10	-0.033247054
246	0x3d52e3ac	0.051486656
247	0xbde39217	-0.11111849
248	0x3d041650	0.03224784
249	0x3d129ab0	0.035792053
250	0xbd5ab875	-0.05339857
251	0xbbbf1a60	-0.0058320016
252	0x3cf10e60	0.0294258
253	0x3d208ff3	0.03919978
254	0x3d8176d4	0.06321493
255	0x3df37382	0.11887266

6.bias f4 [32]
0	0x3c9ae62e	0.018908586
1	0xbd35692c	-0.044289753
2	0xba1b321e	-0.0005920249
3	0x3d66b48b	0.056324523
4	0xbd373fd9	-0.044738624
5	0x3da4600f	0.08026134
6	0x3d97b0f7	0.074068
7	0xbd905058	-0.07046574
8	0xbe0847d3	-0.13308649
9	0x3dd0744a	0.101784304
10	0x3dacf641	0.08445407
11	0x3d932f4c	0.071867555
12	0x3d85daa5	0.06535844
13	0x3c297243	0.0103421835
14	0x3e448012	0.1918948
15	0x3c8f9396	0.01752643
16	0x3d57579d	0.05257379
17	0xbdecf4e6	-0.11570148
18	0x3b174ca2	0.0023086448
19	0x3ed02998	0.40656734
20	0x3d44a578	0.048009366
21	0xbde79e72	-0.11309518
22	0x3d4a7700	0.049429893
23	0xbdd2c8ad	-0.10292182
24	0xbe337aef	-0.17527364
25	0x3d83015a	0.06396742
26	0xbd3b7905	-0.04576971
27	0x3dc4a6a9	0.096021004
28	0x3db0e1e1	0.08636833
29	0xbe22c830	-0.15896678
30	0xbd22e8a4	-0.039772645
31	0x3dd9124a	0.105991915

8.weight f4 [11, 32]
0	0xbd1a757e	-0.037709706
1	0x3d19f7e0	0.037589908
2	0xbe0d51b4	-0.13800699
3	0xbf86cf86	-1.0532081
4	0x3e990c48	0.29892182
5	0xbfb170b2	-1.3862517
6	0xbe983be0	-0.2973318
7	0x3dcab1d1	0.09897197
8	0xbce4e407	-0.027940763
9	0xbde12f26	-0.10995321
10	0xbe804162	-0.25049883
11	0x3e003d8d	0.1252348
12	0xbdc128a3	-0.09431579
13	0x3d8b721f	0.06808876
14	0xbf913c26	-1.1346481
15	0xbd694967	-0.056954768
16	0x3dcf3cf1	0.101190455
17	0xbd7a2e60	-0.061079383
18	0xbf87748e	-1.0582445
19	0x3e7118c3	0.23544602
20	0xbc28d4a5	-0.010304605
21	0x3e05089d	0.12991567
22	0x3e1d3af9	0.15354528
23	0x3e12c01a	0.14331093
24	0x3f168e55	0.5881093
25	0xbd3bb91b	-0.045830827
26	0xbda24556	-0.07923381
27	0x3d0ff28f	0.03514343
28	0xbefd39a4	-0.4945804
29	0x3dbd9e7a	0.09258743
30	0xbe2bbb56	-0.16770682
31	0xbe03569a	-0.12826005
32	0x3cccdc5e	0.025007423
33	0x3e028197	0.12744747
34	0x3da766d4	0.0817391
35	0xc04239c8	-3.0347767
36	0xbe98cfd0	-0.29846048
37	0xbeb6dc1c	-0.35714805
38	0xbf0c989a	-0.5492035
39	0xbdfb3912	-0.12266745
40	0x3e2fe5ec	0.17177552
41	0xbdadd281	-0.08487416
42	0x3ede2a5c	0.43391693
43	0x3e1265cf	0.1429665
44	0xbe31a2af	-0.17347215
45	0xbd811060	-0.063019514
46	0x3edf72ec	0.43642366
47	0xbd29ee1a	-0.041486837
48	0x3bf233d6	0.007391433
49	0xbd010888	-0.031502277
50	0xbe9368cf	-0.287909
51	0x3db9d6c7	0.09074169
52	0xbe33cd26	-0.17558727
53	0x3e1fd565	0.15608747
54	0x3ddd176e	0.107954845
55	0x3da3b8a9	0.079942055
56	0x3bd74246	0.0065691797
57	0xbec57cde	-0.3857183
58	0x3d723e30	0.059141338
59	0x3e155902	0.14584735
60	0xbe082782	-0.13296321
61	0x3f201164	0.62526536
62	0xbd0037d4	-0.03130324
63	0x3db06fcd	0.08615074
64	0x3d744b6f	0.05964225
65	0xbd155468	-0.03645745
66	0x3d9c6263	0.07635953
67	0xbfad8acc	-1.3557982
68	0x3f0be292	0.54642594
69	0x3d883ad5	0.06651846
70	0xbf1fadb5	-0.6237443
71	0xbe46cf05	-0.19414909
72	0xbda52d10	-0.080652356
73	0x3d6717ea	0.05641929
74	0xbdc7debf	-0.09759282
75	0xbeb4938b	-0.35268816
76	0x3dbe3e97	0.09289282
77	0xbe1bb920	-0.15207338
78	0xbf1039ad	-0.56338006
79	0x3e1faf4f	0.15594219
80	0x3dab018e	0.08349906
81	0x3dce6222	0.10077311
82	0xbeb57d2e	-0.35447067
83	0xbdcaa44c	-0.098946184
84	0x3dbb6dfb	0.091518365
85	0x3d30e33c	0.043185458
86	0xbe06d9c8	-0.13169014
87	0x3dd70d8e	0.10500632
88	0x3e0e4941	0.13895132
89	0xbece625c	-0.40309417
90	0x3d523b77	0.05132624
91	0x3cab8128	0.02093561
92	0xbf4ec2ec	-0.8076618
93	0x3f400109	0.7500158
94	0x3bdfff00	0.0068358183
95	0x3daf8ab2	0.08571376
96	0x3d8935ea	0.066997364
97	0x3ac68d80	0.0015148371
98	0x3cbe58ab	0.02323564
99	0x3f4479ef	0.76748556
100	0x3f06564a	0.52475417
101	0xbd894906	-0.06703381
102	0xbdbd65a1	-0.092479
103	0x3da2ece7	0.07955342
104	0xbe1f895e	-0.15579745
105	0xbe56129c	-0.20905536
106	0x3cab8fbe	0.020942565
107	0xbe4d25c4	-0.20033938
108	0x3cde784c	0.027156971
109	0xbd9ea358	-0.07745999
110	0x3e516047	0.20446883
111	0x3d93425f	0.07190394
112	0xbd0053f9	-0.031330083
113	0xbdd49257	-0.103794746
114	0xbd48d4c9	-0.049031053
115	0x3ec7ef51	0.3904977
116	0x3e10a8fb	0.14126961
117	0x3db3baae	0.08775841
118	0x3e014db9	0.12627305
119	0x3e5c7b5a	0.2153143
120	0xbebe9acd	-0.3722748
121	0xbe937fe7	-0.2880852
122	0xbbcd7cea	-0.0062709944
123	0x3db43959	0.08800001
124	0xbe2934ce	-0.1652405
125	0x3e09bad9	0.13450183
126	0xbdf9263a	-0.12165494
127	0xbece43c7	-0.40286085
128	0x3dc1f906	0.094713256
129	0x3d030ca4	0.031994477
130	0xbde134a4	-0.109963685
131	0x3ec9d0b3	0.39417037
132	0x3ec6e9e9	0.38850334
133	0xbdc0fb2e	-0.09422909
134	0xbe22819a	-0.15869752
135	0x3a48c5bf	0.0007658861
136	0x3e2ba303	0.16761403
137	0xbe98e102	-0.29859167
138	0xbff53e23	-1.9159588
139	0xbe95d9e6	-0.29267806
140	0x3d917174	0.071017176
141	0x3e2a9d54	0.16661578
142	0xbfbb9804	-1.4655766
143	0x3adefe31	0.0017013011
144	0xbdc557db	-0.09635898
145	0x3e1d0b63	0.15336375
146	0xbe97f004	-0.29675305
147	0x3e5deaf4	0.21671659
148	0xbe0b19ad	-0.13584013
149	0x3d262270	0.040560186
150	0xbdcbc7aa	-0.09950192
151	0x3f87f5e3	1.0621914
152	0x3d31ce9d	0.043409932
153	0xbe561fff	-0.20910643
154	0xbcea35db	-0.028590133
155	0xbde89c96	-0.113579914
156	0xbead6546	-0.33866328
157	0x3e088202	0.13330844
158	0xbe1a489d	-0.15066762
159	0x3c8381f2	0.016053174
160	0x3dbc5eaf	0.09197747
161	0x3e20ce03	0.15703587
162	0x3d98c95c	0.07460281
163	0x3e0213c4	0.12702852
164	0x3ea54867	0.322818
165	0x3e92969d	0.28630534
166	0x3eb64ef2	0.35607105
167	0x3da3c05c	0.07995674
168	0x3dccbb8c	0.09996709
169	0xbd97c403	-0.07410433
170	0xbf4ffdda	-0.8124672
171	0xbe39cb70	-0.18144011
172	0x3dfea281	0.12433339
173	0x3cc38690	0.023867875
174	0xbe9d8720	-0.30767155
175	0xbdeb8828	-0.11500579
176	0xbe2e196f	-0.1700189
177	0xbe0b8049	-0.13623156
178	0xbec302b1	-0.3808799
179	0x3f6ccfed	0.9250477
180	0x3df7e7c3	0.12104752
181	0xbe29d6ad	-0.16585799
182	0xbc3a5580	-0.011372924
183	0xbf5eb82e	-0.86999786
184	0xbe344b40	-0.1760683
185	0xbca355f1	-0.019938441
186	0x3e148011	0.14501978
187	0x3e1f8862	0.1557937
188	0xbe14a941	-0.1451769
189	0xbffdd17f	-1.9829558
190	0xbba8edc0	-0.005155295
191	0xbe16d2f1	-0.14728905
192	0xbdfac533	-0.12244644
193	0xbdae26c6	-0.08503489
194	0x3e1ab7b1	0.15109135
195	0xbf3bdf1f	-0.7338733
196	0xbb1568b8	-0.0022798013
197	0xbfce65e5	-1.6124846
198	0x3d913dbb	0.07091852
199	0x3e2838fc	0.16427988
200	0x3d9f2c0a	0.07772072
201	0x3e7c7b46	0.246564
202	0xbe818176	-0.25294083
203	0xbe120049	-0.14257921
204	0xbe284128	-0.16431105
205	0x3d979dff	0.07403182
206	0x3f084833	0.5323517
207	0x3daa708c	0.08322248
208	0xbcb0e41f	-0.021593152
209	0x3dd97ffe	0.10620116
210	0xbf2943a1	-0.6611882
211	0xbe25c396	-0.16187891
212	0xbe20d3ec	-0.15705842
213	0xbddfa03d	-0.10919235
214	0xbe183f28	-0.14867842
215	0xbe47cfdc	-0.19512886
216	0x3ee90b9d	0.45516673
217	0xbe919484	-0.2843362
218	0x3e286a33	0.16446762
219	0xbd87bf26	-0.066282555
220	0xbea80a46	-0.32820338
221	0xbfe19d84	-1.7626195
222	0x3e28c393	0.16480856
223	0x3e89973f	0.26873204
224	0xbe3446cd	-0.17605133
225	0xbdeca1bd	-0.11554287
226	0xbcbea311	-0.023271115
227	0xbde51694	-0.11185947
228	0xc000c57d	-2.0120537
229	0xbe015a4c	-0.12632102
230	0x3dc61bf7	0.096733026
231	0x3e14ff3d	0.1455049
232	0x3e21a4ad	0.15785475
233	0x3df8f90d	0.12156878
234	0x3dfad985	0.1224852
235	0x3c8ea7fc	0.017414086
236	0x3c8a0057	0.016845865
237	0xbdb1938a	-0.08670719
238	0xbe6243bc	-0.22096151
239	0xbd1e6f7b	-0.038680535
240	0xbd018c92	-0.0316282
241	0xbdfd8d16	-0.12380426
242	0xc0023fd6	-2.0351462
243	0x3eb0034f	0.34377524
244	0x3cc1c747	0.023654593
245	0x3da83c96	0.08214681
246	0x3d15e5a0	0.03659594
247	0x3e1f9079	0.15582456
248	0x3e23a540	0.15981007
249	0x3de2b423	0.110695146
250	0x3e0779e4	0.13230091
251	0x3dad860e	0.084728345
252	0xbd0790d2	-0.033097096
253	0xbf4ce859	-0.80042034
254	0xbe156add	-0.14591546
255	0xbda2c6b0	-0.07948053

8.bias f4 [11]
0	0xbd5874cd	-0.052845765
1	0xbdcece5f	-0.10097956
2	0x3da1316d	0.07870755
3	0x3db2f808	0.087387145
4	0x3d807655	0.0627257
5	0xbbdb0e83	-0.0066850795
6	0x3e44969c	0.19198078
7	0xbd71fb33	-0.059077453
8	0x3e115ac8	0.14194787
9	0x3c0c8716	0.008577129
10	0xbda4d455	-0.080483116
